…
{\fonttbl\f0\fswiss\fcharset0 Helvetica;}
{\colortbl;\red255\green255\blue255;}
{\*\expandedcolortbl;;}
\margl1440\margr1440\vieww10800\viewh8400\viewkind0
\pard\tx720\tx1440\tx2160\tx2880\tx3600\tx4320\tx5040\tx5760\tx6480\tx7200\tx7920\tx8640\pardirnatural\partightenfactor0

\f0\fs24 \cf0 __________________________________________________________________________________________________\
Layer (type)                    Output Shape         Param #     Connected to                     \
==================================================================================================\
input_3 (InputLayer)            (None, 288, 288, 3)  0                                            \
__________________________________________________________________________________________________\
conv2d_45 (Conv2D)              (None, 288, 288, 32) 896         input_3[0][0]                    \
__________________________________________________________________________________________________\
conv2d_46 (Conv2D)              (None, 288, 288, 32) 9248        conv2d_45[0][0]                  \
__________________________________________________________________________________________________\
batch_normalization_23 (BatchNo (None, 288, 288, 32) 128         conv2d_46[0][0]                  \
__________________________________________________________________________________________________\
dropout_23 (Dropout)            (None, 288, 288, 32) 0           batch_normalization_23[0][0]     \
__________________________________________________________________________________________________\
max_pooling2d_11 (MaxPooling2D) (None, 144, 144, 32) 0           dropout_23[0][0]                 \
__________________________________________________________________________________________________\
conv2d_47 (Conv2D)              (None, 144, 144, 64) 18496       max_pooling2d_11[0][0]           \
__________________________________________________________________________________________________\
conv2d_48 (Conv2D)              (None, 144, 144, 64) 36928       conv2d_47[0][0]                  \
__________________________________________________________________________________________________\
batch_normalization_24 (BatchNo (None, 144, 144, 64) 256         conv2d_48[0][0]                  \
__________________________________________________________________________________________________\
dropout_24 (Dropout)            (None, 144, 144, 64) 0           batch_normalization_24[0][0]     \
__________________________________________________________________________________________________\
max_pooling2d_12 (MaxPooling2D) (None, 72, 72, 64)   0           dropout_24[0][0]                 \
__________________________________________________________________________________________________\
conv2d_49 (Conv2D)              (None, 72, 72, 128)  73856       max_pooling2d_12[0][0]           \
__________________________________________________________________________________________________\
conv2d_50 (Conv2D)              (None, 72, 72, 128)  147584      conv2d_49[0][0]                  \
__________________________________________________________________________________________________\
batch_normalization_25 (BatchNo (None, 72, 72, 128)  512         conv2d_50[0][0]                  \
__________________________________________________________________________________________________\
dropout_25 (Dropout)            (None, 72, 72, 128)  0           batch_normalization_25[0][0]     \
__________________________________________________________________________________________________\
max_pooling2d_13 (MaxPooling2D) (None, 36, 36, 128)  0           dropout_25[0][0]                 \
__________________________________________________________________________________________________\
conv2d_51 (Conv2D)              (None, 36, 36, 256)  295168      max_pooling2d_13[0][0]           \
__________________________________________________________________________________________________\
conv2d_52 (Conv2D)              (None, 36, 36, 256)  590080      conv2d_51[0][0]                  \
__________________________________________________________________________________________________\
batch_normalization_26 (BatchNo (None, 36, 36, 256)  1024        conv2d_52[0][0]                  \
__________________________________________________________________________________________________\
dropout_26 (Dropout)            (None, 36, 36, 256)  0           batch_normalization_26[0][0]     \
__________________________________________________________________________________________________\
max_pooling2d_14 (MaxPooling2D) (None, 18, 18, 256)  0           dropout_26[0][0]                 \
__________________________________________________________________________________________________\
conv2d_53 (Conv2D)              (None, 18, 18, 512)  1180160     max_pooling2d_14[0][0]           \
__________________________________________________________________________________________________\
conv2d_54 (Conv2D)              (None, 18, 18, 512)  2359808     conv2d_53[0][0]                  \
__________________________________________________________________________________________________\
batch_normalization_27 (BatchNo (None, 18, 18, 512)  2048        conv2d_54[0][0]                  \
__________________________________________________________________________________________________\
dropout_27 (Dropout)            (None, 18, 18, 512)  0           batch_normalization_27[0][0]     \
__________________________________________________________________________________________________\
max_pooling2d_15 (MaxPooling2D) (None, 9, 9, 512)    0           dropout_27[0][0]                 \
__________________________________________________________________________________________________\
conv2d_55 (Conv2D)              (None, 9, 9, 1024)   4719616     max_pooling2d_15[0][0]           \
__________________________________________________________________________________________________\
conv2d_56 (Conv2D)              (None, 9, 9, 1024)   9438208     conv2d_55[0][0]                  \
__________________________________________________________________________________________________\
batch_normalization_28 (BatchNo (None, 9, 9, 1024)   4096        conv2d_56[0][0]                  \
__________________________________________________________________________________________________\
dropout_28 (Dropout)            (None, 9, 9, 1024)   0           batch_normalization_28[0][0]     \
__________________________________________________________________________________________________\
conv2d_transpose_11 (Conv2DTran (None, 18, 18, 512)  4719104     dropout_28[0][0]                 \
__________________________________________________________________________________________________\
concatenate_11 (Concatenate)    (None, 18, 18, 1024) 0           conv2d_transpose_11[0][0]        \
                                                                 dropout_27[0][0]                 \
__________________________________________________________________________________________________\
conv2d_57 (Conv2D)              (None, 18, 18, 512)  4719104     concatenate_11[0][0]             \
__________________________________________________________________________________________________\
conv2d_58 (Conv2D)              (None, 18, 18, 512)  2359808     conv2d_57[0][0]                  \
__________________________________________________________________________________________________\
batch_normalization_29 (BatchNo (None, 18, 18, 512)  2048        conv2d_58[0][0]                  \
__________________________________________________________________________________________________\
dropout_29 (Dropout)            (None, 18, 18, 512)  0           batch_normalization_29[0][0]     \
__________________________________________________________________________________________________\
conv2d_transpose_12 (Conv2DTran (None, 36, 36, 256)  1179904     dropout_29[0][0]                 \
__________________________________________________________________________________________________\
concatenate_12 (Concatenate)    (None, 36, 36, 512)  0           conv2d_transpose_12[0][0]        \
                                                                 dropout_26[0][0]                 \
__________________________________________________________________________________________________\
conv2d_59 (Conv2D)              (None, 36, 36, 256)  1179904     concatenate_12[0][0]             \
__________________________________________________________________________________________________\
conv2d_60 (Conv2D)              (None, 36, 36, 256)  590080      conv2d_59[0][0]                  \
__________________________________________________________________________________________________\
batch_normalization_30 (BatchNo (None, 36, 36, 256)  1024        conv2d_60[0][0]                  \
__________________________________________________________________________________________________\
dropout_30 (Dropout)            (None, 36, 36, 256)  0           batch_normalization_30[0][0]     \
__________________________________________________________________________________________________\
conv2d_transpose_13 (Conv2DTran (None, 72, 72, 128)  295040      dropout_30[0][0]                 \
__________________________________________________________________________________________________\
concatenate_13 (Concatenate)    (None, 72, 72, 256)  0           conv2d_transpose_13[0][0]        \
                                                                 dropout_25[0][0]                 \
__________________________________________________________________________________________________\
conv2d_61 (Conv2D)              (None, 72, 72, 128)  295040      concatenate_13[0][0]             \
__________________________________________________________________________________________________\
conv2d_62 (Conv2D)              (None, 72, 72, 128)  147584      conv2d_61[0][0]                  \
__________________________________________________________________________________________________\
batch_normalization_31 (BatchNo (None, 72, 72, 128)  512         conv2d_62[0][0]                  \
__________________________________________________________________________________________________\
dropout_31 (Dropout)            (None, 72, 72, 128)  0           batch_normalization_31[0][0]     \
__________________________________________________________________________________________________\
conv2d_transpose_14 (Conv2DTran (None, 144, 144, 64) 73792       dropout_31[0][0]                 \
__________________________________________________________________________________________________\
concatenate_14 (Concatenate)    (None, 144, 144, 128 0           conv2d_transpose_14[0][0]        \
                                                                 dropout_24[0][0]                 \
__________________________________________________________________________________________________\
conv2d_63 (Conv2D)              (None, 144, 144, 64) 73792       concatenate_14[0][0]             \
__________________________________________________________________________________________________\
conv2d_64 (Conv2D)              (None, 144, 144, 64) 36928       conv2d_63[0][0]                  \
__________________________________________________________________________________________________\
batch_normalization_32 (BatchNo (None, 144, 144, 64) 256         conv2d_64[0][0]                  \
__________________________________________________________________________________________________\
dropout_32 (Dropout)            (None, 144, 144, 64) 0           batch_normalization_32[0][0]     \
__________________________________________________________________________________________________\
conv2d_transpose_15 (Conv2DTran (None, 288, 288, 32) 18464       dropout_32[0][0]                 \
__________________________________________________________________________________________________\
concatenate_15 (Concatenate)    (None, 288, 288, 64) 0           conv2d_transpose_15[0][0]        \
                                                                 dropout_23[0][0]                 \
__________________________________________________________________________________________________\
conv2d_65 (Conv2D)              (None, 288, 288, 32) 18464       concatenate_15[0][0]             \
__________________________________________________________________________________________________\
conv2d_66 (Conv2D)              (None, 288, 288, 32) 9248        conv2d_65[0][0]                  \
__________________________________________________________________________________________________\
batch_normalization_33 (BatchNo (None, 288, 288, 32) 128         conv2d_66[0][0]                  \
__________________________________________________________________________________________________\
dropout_33 (Dropout)            (None, 288, 288, 32) 0           batch_normalization_33[0][0]     \
__________________________________________________________________________________________________\
output_activation (Conv2D)      (None, 288, 288, 1)  33          dropout_33[0][0]                 \
==================================================================================================\
Total params: 34,598,369\
Trainable params: 34,592,353\
Non-trainable params: 6,016\
__________________________________________________________________________________________________\
}