…
{\fonttbl\f0\fswiss\fcharset0 Helvetica;}
{\colortbl;\red255\green255\blue255;}
{\*\expandedcolortbl;;}
\margl1440\margr1440\vieww10800\viewh8400\viewkind0
\pard\tx720\tx1440\tx2160\tx2880\tx3600\tx4320\tx5040\tx5760\tx6480\tx7200\tx7920\tx8640\pardirnatural\partightenfactor0

\f0\fs24 \cf0 __________________________________________________________________________________________________\
Layer (type)                    Output Shape         Param #     Connected to                     \
==================================================================================================\
input_2 (InputLayer)            (None, 288, 288, 5)  0                                            \
__________________________________________________________________________________________________\
conv2d_23 (Conv2D)              (None, 288, 288, 32) 1472        input_2[0][0]                    \
__________________________________________________________________________________________________\
conv2d_24 (Conv2D)              (None, 288, 288, 32) 9248        conv2d_23[0][0]                  \
__________________________________________________________________________________________________\
batch_normalization_12 (BatchNo (None, 288, 288, 32) 128         conv2d_24[0][0]                  \
__________________________________________________________________________________________________\
dropout_12 (Dropout)            (None, 288, 288, 32) 0           batch_normalization_12[0][0]     \
__________________________________________________________________________________________________\
max_pooling2d_6 (MaxPooling2D)  (None, 144, 144, 32) 0           dropout_12[0][0]                 \
__________________________________________________________________________________________________\
conv2d_25 (Conv2D)              (None, 144, 144, 64) 18496       max_pooling2d_6[0][0]            \
__________________________________________________________________________________________________\
conv2d_26 (Conv2D)              (None, 144, 144, 64) 36928       conv2d_25[0][0]                  \
__________________________________________________________________________________________________\
batch_normalization_13 (BatchNo (None, 144, 144, 64) 256         conv2d_26[0][0]                  \
__________________________________________________________________________________________________\
dropout_13 (Dropout)            (None, 144, 144, 64) 0           batch_normalization_13[0][0]     \
__________________________________________________________________________________________________\
max_pooling2d_7 (MaxPooling2D)  (None, 72, 72, 64)   0           dropout_13[0][0]                 \
__________________________________________________________________________________________________\
conv2d_27 (Conv2D)              (None, 72, 72, 128)  73856       max_pooling2d_7[0][0]            \
__________________________________________________________________________________________________\
conv2d_28 (Conv2D)              (None, 72, 72, 128)  147584      conv2d_27[0][0]                  \
__________________________________________________________________________________________________\
batch_normalization_14 (BatchNo (None, 72, 72, 128)  512         conv2d_28[0][0]                  \
__________________________________________________________________________________________________\
dropout_14 (Dropout)            (None, 72, 72, 128)  0           batch_normalization_14[0][0]     \
__________________________________________________________________________________________________\
max_pooling2d_8 (MaxPooling2D)  (None, 36, 36, 128)  0           dropout_14[0][0]                 \
__________________________________________________________________________________________________\
conv2d_29 (Conv2D)              (None, 36, 36, 256)  295168      max_pooling2d_8[0][0]            \
__________________________________________________________________________________________________\
conv2d_30 (Conv2D)              (None, 36, 36, 256)  590080      conv2d_29[0][0]                  \
__________________________________________________________________________________________________\
batch_normalization_15 (BatchNo (None, 36, 36, 256)  1024        conv2d_30[0][0]                  \
__________________________________________________________________________________________________\
dropout_15 (Dropout)            (None, 36, 36, 256)  0           batch_normalization_15[0][0]     \
__________________________________________________________________________________________________\
max_pooling2d_9 (MaxPooling2D)  (None, 18, 18, 256)  0           dropout_15[0][0]                 \
__________________________________________________________________________________________________\
conv2d_31 (Conv2D)              (None, 18, 18, 512)  1180160     max_pooling2d_9[0][0]            \
__________________________________________________________________________________________________\
conv2d_32 (Conv2D)              (None, 18, 18, 512)  2359808     conv2d_31[0][0]                  \
__________________________________________________________________________________________________\
batch_normalization_16 (BatchNo (None, 18, 18, 512)  2048        conv2d_32[0][0]                  \
__________________________________________________________________________________________________\
dropout_16 (Dropout)            (None, 18, 18, 512)  0           batch_normalization_16[0][0]     \
__________________________________________________________________________________________________\
max_pooling2d_10 (MaxPooling2D) (None, 9, 9, 512)    0           dropout_16[0][0]                 \
__________________________________________________________________________________________________\
conv2d_33 (Conv2D)              (None, 9, 9, 1024)   4719616     max_pooling2d_10[0][0]           \
__________________________________________________________________________________________________\
conv2d_34 (Conv2D)              (None, 9, 9, 1024)   9438208     conv2d_33[0][0]                  \
__________________________________________________________________________________________________\
batch_normalization_17 (BatchNo (None, 9, 9, 1024)   4096        conv2d_34[0][0]                  \
__________________________________________________________________________________________________\
dropout_17 (Dropout)            (None, 9, 9, 1024)   0           batch_normalization_17[0][0]     \
__________________________________________________________________________________________________\
conv2d_transpose_6 (Conv2DTrans (None, 18, 18, 512)  4719104     dropout_17[0][0]                 \
__________________________________________________________________________________________________\
concatenate_6 (Concatenate)     (None, 18, 18, 1024) 0           conv2d_transpose_6[0][0]         \
                                                                 dropout_16[0][0]                 \
__________________________________________________________________________________________________\
conv2d_35 (Conv2D)              (None, 18, 18, 512)  4719104     concatenate_6[0][0]              \
__________________________________________________________________________________________________\
conv2d_36 (Conv2D)              (None, 18, 18, 512)  2359808     conv2d_35[0][0]                  \
__________________________________________________________________________________________________\
batch_normalization_18 (BatchNo (None, 18, 18, 512)  2048        conv2d_36[0][0]                  \
__________________________________________________________________________________________________\
dropout_18 (Dropout)            (None, 18, 18, 512)  0           batch_normalization_18[0][0]     \
__________________________________________________________________________________________________\
conv2d_transpose_7 (Conv2DTrans (None, 36, 36, 256)  1179904     dropout_18[0][0]                 \
__________________________________________________________________________________________________\
concatenate_7 (Concatenate)     (None, 36, 36, 512)  0           conv2d_transpose_7[0][0]         \
                                                                 dropout_15[0][0]                 \
__________________________________________________________________________________________________\
conv2d_37 (Conv2D)              (None, 36, 36, 256)  1179904     concatenate_7[0][0]              \
__________________________________________________________________________________________________\
conv2d_38 (Conv2D)              (None, 36, 36, 256)  590080      conv2d_37[0][0]                  \
__________________________________________________________________________________________________\
batch_normalization_19 (BatchNo (None, 36, 36, 256)  1024        conv2d_38[0][0]                  \
__________________________________________________________________________________________________\
dropout_19 (Dropout)            (None, 36, 36, 256)  0           batch_normalization_19[0][0]     \
__________________________________________________________________________________________________\
conv2d_transpose_8 (Conv2DTrans (None, 72, 72, 128)  295040      dropout_19[0][0]                 \
__________________________________________________________________________________________________\
concatenate_8 (Concatenate)     (None, 72, 72, 256)  0           conv2d_transpose_8[0][0]         \
                                                                 dropout_14[0][0]                 \
__________________________________________________________________________________________________\
conv2d_39 (Conv2D)              (None, 72, 72, 128)  295040      concatenate_8[0][0]              \
__________________________________________________________________________________________________\
conv2d_40 (Conv2D)              (None, 72, 72, 128)  147584      conv2d_39[0][0]                  \
__________________________________________________________________________________________________\
batch_normalization_20 (BatchNo (None, 72, 72, 128)  512         conv2d_40[0][0]                  \
__________________________________________________________________________________________________\
dropout_20 (Dropout)            (None, 72, 72, 128)  0           batch_normalization_20[0][0]     \
__________________________________________________________________________________________________\
conv2d_transpose_9 (Conv2DTrans (None, 144, 144, 64) 73792       dropout_20[0][0]                 \
__________________________________________________________________________________________________\
concatenate_9 (Concatenate)     (None, 144, 144, 128 0           conv2d_transpose_9[0][0]         \
                                                                 dropout_13[0][0]                 \
__________________________________________________________________________________________________\
conv2d_41 (Conv2D)              (None, 144, 144, 64) 73792       concatenate_9[0][0]              \
__________________________________________________________________________________________________\
conv2d_42 (Conv2D)              (None, 144, 144, 64) 36928       conv2d_41[0][0]                  \
__________________________________________________________________________________________________\
batch_normalization_21 (BatchNo (None, 144, 144, 64) 256         conv2d_42[0][0]                  \
__________________________________________________________________________________________________\
dropout_21 (Dropout)            (None, 144, 144, 64) 0           batch_normalization_21[0][0]     \
__________________________________________________________________________________________________\
conv2d_transpose_10 (Conv2DTran (None, 288, 288, 32) 18464       dropout_21[0][0]                 \
__________________________________________________________________________________________________\
concatenate_10 (Concatenate)    (None, 288, 288, 64) 0           conv2d_transpose_10[0][0]        \
                                                                 dropout_12[0][0]                 \
__________________________________________________________________________________________________\
conv2d_43 (Conv2D)              (None, 288, 288, 32) 18464       concatenate_10[0][0]             \
__________________________________________________________________________________________________\
conv2d_44 (Conv2D)              (None, 288, 288, 32) 9248        conv2d_43[0][0]                  \
__________________________________________________________________________________________________\
batch_normalization_22 (BatchNo (None, 288, 288, 32) 128         conv2d_44[0][0]                  \
__________________________________________________________________________________________________\
dropout_22 (Dropout)            (None, 288, 288, 32) 0           batch_normalization_22[0][0]     \
__________________________________________________________________________________________________\
output_activation (Conv2D)      (None, 288, 288, 1)  33          dropout_22[0][0]                 \
==================================================================================================\
Total params: 34,598,945\
Trainable params: 34,592,929\
Non-trainable params: 6,016\
__________________________________________________________________________________________________\
}