…
{\fonttbl\f0\fswiss\fcharset0 Helvetica;}
{\colortbl;\red255\green255\blue255;}
{\*\expandedcolortbl;;}
\margl1440\margr1440\vieww10800\viewh8400\viewkind0
\pard\tx720\tx1440\tx2160\tx2880\tx3600\tx4320\tx5040\tx5760\tx6480\tx7200\tx7920\tx8640\pardirnatural\partightenfactor0

\f0\fs24 \cf0 __________________________________________________________________________________________________\
Layer (type)                    Output Shape         Param #     Connected to                     \
==================================================================================================\
input_1 (InputLayer)            (None, 288, 288, 7)  0                                            \
__________________________________________________________________________________________________\
conv2d_1 (Conv2D)               (None, 288, 288, 32) 2048        input_1[0][0]                    \
__________________________________________________________________________________________________\
conv2d_2 (Conv2D)               (None, 288, 288, 32) 9248        conv2d_1[0][0]                   \
__________________________________________________________________________________________________\
batch_normalization_1 (BatchNor (None, 288, 288, 32) 128         conv2d_2[0][0]                   \
__________________________________________________________________________________________________\
dropout_1 (Dropout)             (None, 288, 288, 32) 0           batch_normalization_1[0][0]      \
__________________________________________________________________________________________________\
max_pooling2d_1 (MaxPooling2D)  (None, 144, 144, 32) 0           dropout_1[0][0]                  \
__________________________________________________________________________________________________\
conv2d_3 (Conv2D)               (None, 144, 144, 64) 18496       max_pooling2d_1[0][0]            \
__________________________________________________________________________________________________\
conv2d_4 (Conv2D)               (None, 144, 144, 64) 36928       conv2d_3[0][0]                   \
__________________________________________________________________________________________________\
batch_normalization_2 (BatchNor (None, 144, 144, 64) 256         conv2d_4[0][0]                   \
__________________________________________________________________________________________________\
dropout_2 (Dropout)             (None, 144, 144, 64) 0           batch_normalization_2[0][0]      \
__________________________________________________________________________________________________\
max_pooling2d_2 (MaxPooling2D)  (None, 72, 72, 64)   0           dropout_2[0][0]                  \
__________________________________________________________________________________________________\
conv2d_5 (Conv2D)               (None, 72, 72, 128)  73856       max_pooling2d_2[0][0]            \
__________________________________________________________________________________________________\
conv2d_6 (Conv2D)               (None, 72, 72, 128)  147584      conv2d_5[0][0]                   \
__________________________________________________________________________________________________\
batch_normalization_3 (BatchNor (None, 72, 72, 128)  512         conv2d_6[0][0]                   \
__________________________________________________________________________________________________\
dropout_3 (Dropout)             (None, 72, 72, 128)  0           batch_normalization_3[0][0]      \
__________________________________________________________________________________________________\
max_pooling2d_3 (MaxPooling2D)  (None, 36, 36, 128)  0           dropout_3[0][0]                  \
__________________________________________________________________________________________________\
conv2d_7 (Conv2D)               (None, 36, 36, 256)  295168      max_pooling2d_3[0][0]            \
__________________________________________________________________________________________________\
conv2d_8 (Conv2D)               (None, 36, 36, 256)  590080      conv2d_7[0][0]                   \
__________________________________________________________________________________________________\
batch_normalization_4 (BatchNor (None, 36, 36, 256)  1024        conv2d_8[0][0]                   \
__________________________________________________________________________________________________\
dropout_4 (Dropout)             (None, 36, 36, 256)  0           batch_normalization_4[0][0]      \
__________________________________________________________________________________________________\
max_pooling2d_4 (MaxPooling2D)  (None, 18, 18, 256)  0           dropout_4[0][0]                  \
__________________________________________________________________________________________________\
conv2d_9 (Conv2D)               (None, 18, 18, 512)  1180160     max_pooling2d_4[0][0]            \
__________________________________________________________________________________________________\
conv2d_10 (Conv2D)              (None, 18, 18, 512)  2359808     conv2d_9[0][0]                   \
__________________________________________________________________________________________________\
batch_normalization_5 (BatchNor (None, 18, 18, 512)  2048        conv2d_10[0][0]                  \
__________________________________________________________________________________________________\
dropout_5 (Dropout)             (None, 18, 18, 512)  0           batch_normalization_5[0][0]      \
__________________________________________________________________________________________________\
max_pooling2d_5 (MaxPooling2D)  (None, 9, 9, 512)    0           dropout_5[0][0]                  \
__________________________________________________________________________________________________\
conv2d_11 (Conv2D)              (None, 9, 9, 1024)   4719616     max_pooling2d_5[0][0]            \
__________________________________________________________________________________________________\
conv2d_12 (Conv2D)              (None, 9, 9, 1024)   9438208     conv2d_11[0][0]                  \
__________________________________________________________________________________________________\
batch_normalization_6 (BatchNor (None, 9, 9, 1024)   4096        conv2d_12[0][0]                  \
__________________________________________________________________________________________________\
dropout_6 (Dropout)             (None, 9, 9, 1024)   0           batch_normalization_6[0][0]      \
__________________________________________________________________________________________________\
conv2d_transpose_1 (Conv2DTrans (None, 18, 18, 512)  4719104     dropout_6[0][0]                  \
__________________________________________________________________________________________________\
concatenate_1 (Concatenate)     (None, 18, 18, 1024) 0           conv2d_transpose_1[0][0]         \
                                                                 dropout_5[0][0]                  \
__________________________________________________________________________________________________\
conv2d_13 (Conv2D)              (None, 18, 18, 512)  4719104     concatenate_1[0][0]              \
__________________________________________________________________________________________________\
conv2d_14 (Conv2D)              (None, 18, 18, 512)  2359808     conv2d_13[0][0]                  \
__________________________________________________________________________________________________\
batch_normalization_7 (BatchNor (None, 18, 18, 512)  2048        conv2d_14[0][0]                  \
__________________________________________________________________________________________________\
dropout_7 (Dropout)             (None, 18, 18, 512)  0           batch_normalization_7[0][0]      \
__________________________________________________________________________________________________\
conv2d_transpose_2 (Conv2DTrans (None, 36, 36, 256)  1179904     dropout_7[0][0]                  \
__________________________________________________________________________________________________\
concatenate_2 (Concatenate)     (None, 36, 36, 512)  0           conv2d_transpose_2[0][0]         \
                                                                 dropout_4[0][0]                  \
__________________________________________________________________________________________________\
conv2d_15 (Conv2D)              (None, 36, 36, 256)  1179904     concatenate_2[0][0]              \
__________________________________________________________________________________________________\
conv2d_16 (Conv2D)              (None, 36, 36, 256)  590080      conv2d_15[0][0]                  \
__________________________________________________________________________________________________\
batch_normalization_8 (BatchNor (None, 36, 36, 256)  1024        conv2d_16[0][0]                  \
__________________________________________________________________________________________________\
dropout_8 (Dropout)             (None, 36, 36, 256)  0           batch_normalization_8[0][0]      \
__________________________________________________________________________________________________\
conv2d_transpose_3 (Conv2DTrans (None, 72, 72, 128)  295040      dropout_8[0][0]                  \
__________________________________________________________________________________________________\
concatenate_3 (Concatenate)     (None, 72, 72, 256)  0           conv2d_transpose_3[0][0]         \
                                                                 dropout_3[0][0]                  \
__________________________________________________________________________________________________\
conv2d_17 (Conv2D)              (None, 72, 72, 128)  295040      concatenate_3[0][0]              \
__________________________________________________________________________________________________\
conv2d_18 (Conv2D)              (None, 72, 72, 128)  147584      conv2d_17[0][0]                  \
__________________________________________________________________________________________________\
batch_normalization_9 (BatchNor (None, 72, 72, 128)  512         conv2d_18[0][0]                  \
__________________________________________________________________________________________________\
dropout_9 (Dropout)             (None, 72, 72, 128)  0           batch_normalization_9[0][0]      \
__________________________________________________________________________________________________\
conv2d_transpose_4 (Conv2DTrans (None, 144, 144, 64) 73792       dropout_9[0][0]                  \
__________________________________________________________________________________________________\
concatenate_4 (Concatenate)     (None, 144, 144, 128 0           conv2d_transpose_4[0][0]         \
                                                                 dropout_2[0][0]                  \
__________________________________________________________________________________________________\
conv2d_19 (Conv2D)              (None, 144, 144, 64) 73792       concatenate_4[0][0]              \
__________________________________________________________________________________________________\
conv2d_20 (Conv2D)              (None, 144, 144, 64) 36928       conv2d_19[0][0]                  \
__________________________________________________________________________________________________\
batch_normalization_10 (BatchNo (None, 144, 144, 64) 256         conv2d_20[0][0]                  \
__________________________________________________________________________________________________\
dropout_10 (Dropout)            (None, 144, 144, 64) 0           batch_normalization_10[0][0]     \
__________________________________________________________________________________________________\
conv2d_transpose_5 (Conv2DTrans (None, 288, 288, 32) 18464       dropout_10[0][0]                 \
__________________________________________________________________________________________________\
concatenate_5 (Concatenate)     (None, 288, 288, 64) 0           conv2d_transpose_5[0][0]         \
                                                                 dropout_1[0][0]                  \
__________________________________________________________________________________________________\
conv2d_21 (Conv2D)              (None, 288, 288, 32) 18464       concatenate_5[0][0]              \
__________________________________________________________________________________________________\
conv2d_22 (Conv2D)              (None, 288, 288, 32) 9248        conv2d_21[0][0]                  \
__________________________________________________________________________________________________\
batch_normalization_11 (BatchNo (None, 288, 288, 32) 128         conv2d_22[0][0]                  \
__________________________________________________________________________________________________\
dropout_11 (Dropout)            (None, 288, 288, 32) 0           batch_normalization_11[0][0]     \
__________________________________________________________________________________________________\
output_activation (Conv2D)      (None, 288, 288, 1)  33          dropout_11[0][0]                 \
==================================================================================================\
Total params: 34,599,521\
Trainable params: 34,593,505\
Non-trainable params: 6,016\
__________________________________________________________________________________________________}